best_model.pt (torch, 300642 bytes, 30 tensors)

input_projection.weight f4 [64, 16]
0	0x3e750beb	0.23930328
1	0x3e6687c2	0.22512725
2	0x3db9a9ad	0.09065566
3	0x3e0e7a52	0.13913849
4	0xbe1f77c7	-0.15573035
5	0x3e094d07	0.1340829
6	0x3e4fe1f6	0.20301041
7	0xbe90b91f	-0.28266236
8	0x3cd9f357	0.026605291
9	0x3dbfaf28	0.0935958
10	0x3dba5f14	0.09100166
11	0x3e1d64e3	0.15370516
12	0xbd6fc325	-0.058535714
13	0xbd7adfae	-0.061248474
14	0x3daf0f17	0.085478
15	0xbe8fa9e1	-0.28059295
16	0x3ddb6748	0.10713059
17	0x3e5c9729	0.21542038
18	0xbd9dfc88	-0.07714182
19	0xbe81cefb	-0.25353226
20	0x3c7cc500	0.015427828
21	0x3e42c910	0.19022012
22	0xbe4c5825	-0.199555
23	0xbacfb840	-0.0015847757
24	0x3be1a960	0.006886646
25	0x3cef3c14	0.029203452
26	0x3e6586ff	0.22414778
27	0x3e0a6d72	0.13518313
28	0x3d4604de	0.048344485
29	0x3caa1375	0.020761231
30	0x3da8bf49	0.0823961
31	0xbd0a7b37	-0.033808913
32	0xbe04aafd	-0.12955852
33	0x3df02450	0.11725676
34	0xbe182ebb	-0.14861576
35	0xbe82c707	-0.2554247
36	0x3daf2570	0.085520625
37	0xbe113e19	-0.14183845
38	0x3e6d9a65	0.23203428
39	0x3e82cb5b	0.25545773
40	0xbd83cea5	-0.06435899
41	0x3cc32017	0.023819013
42	0x3e580253	0.21094637
43	0xbd599e6e	-0.053129606
44	0xbe21b6bb	-0.15792362
45	0xbe03da90	-0.12876344
46	0x3e0e8ec0	0.13921642
47	0x3e54c266	0.20777282
48	0xbdcae8a0	-0.09907651
49	0xbe009ef5	-0.12560637
50	0x3cf13156	0.02944247
51	0xbe2f6dc1	-0.17131712
52	0xbdbce440	-0.09223223
53	0xbde06ebf	-0.10958623
54	0xbcd16566	-0.025561046
55	0x3e8f26a7	0.27959177
56	0x3db751f2	0.08951177
57	0xbdc23c72	-0.09484185
58	0xbd2f21ba	-0.042756774
59	0x3e2283f9	0.15870656
60	0xbe012678	-0.12612331
61	0xbe0224fd	-0.12709422
62	0xbdc55845	-0.09635977
63	0xbb2e130b	-0.0026561643
64	0x3c0382c1	0.00802678
65	0x3e2e6ed4	0.17034465
66	0x3da7ca9f	0.08192944
67	0x3e1147cd	0.14187546
68	0x3e2772dc	0.16352409
69	0x3dbffabb	0.09373995
70	0x3e150a82	0.1455479
71	0x3e277815	0.16354401
72	0xbe07c4b1	-0.13258626
73	0x3cd09756	0.025462788
74	0xbd861239	-0.065464444
75	0x3e0fce31	0.140435
76	0xbe0b3494	-0.13594276
77	0x3d0789cf	0.03309041
78	0xbe281552	-0.16414383
79	0xbe04be13	-0.12963133
80	0x3e0c2a63	0.13688044
81	0x3e0b1bb3	0.13584785
82	0x3e1ab7f8	0.15109241
83	0xbb8342ce	-0.0040057665
84	0xbe3e6ed7	-0.1859697
85	0x3b4fa08a	0.0031681382
86	0xbe34c848	-0.17654526
87	0xbdbfdec5	-0.09368662
88	0xbd98459e	-0.074351534
89	0x3e2b049b	0.16700976
90	0x3ddffbb1	0.10936678
91	0x3e1b2fc2	0.15154937
92	0x3e4d1a42	0.20029548
93	0x3e4c5860	0.19955587
94	0x3e817485	0.2528421
95	0x3dd44bbe	0.10366009
96	0xbe2c9af9	-0.16855992
97	0xbe777f4f	-0.24169658
98	0xbe390980	-0.1807003
99	0xbe3315b6	-0.17488751
100	0x3d8451dd	0.06460927
101	0xbe3884d0	-0.18019414
102	0x3e4d5e23	0.20055442
103	0xbe8508ec	-0.2598337
104	0xbdf0b13f	-0.11752557
105	0xbe199414	-0.14997894
106	0x3d0f0718	0.034918875
107	0xbe0e0ce4	-0.13872105
108	0x3e116de7	0.1420208
109	0x3dcac9c1	0.09901763
110	0x3e5a1e3f	0.213006
111	0x3c884c7e	0.016638037
112	0xbcb5c095	-0.022186557
113	0xbe3d1b28	-0.1846739
114	0xbe35daf0	-0.177593
115	0xbceaf7f4	-0.028682686
116	0x3d209b27	0.039210465
117	0xbe138dbd	-0.14409538
118	0x3e3840f8	0.17993534
119	0x3e1c4db8	0.15264022
120	0x3df43c9e	0.11925624
121	0x3e2df541	0.16988088
122	0xbe562f82	-0.2091656
123	0x3dfcbb0f	0.12340366
124	0x3e0ff99d	0.14060064
125	0x3dfe7288	0.12424189
126	0x3e6d54c8	0.23176873
127	0x3e0ed891	0.13949801
128	0x3e2ea2a1	0.17054226
129	0x3dec43d4	0.11536375
130	0xbaacc66d	-0.0013181694
131	0x3df61ed8	0.12017602
132	0xbdb76996	-0.08955686
133	0xbca368e2	-0.019947473
134	0xbdda2078	-0.10650724
135	0x3e9a5dcc	0.30149686
136	0xbd41cb6d	-0.047313143
137	0x3d74d79c	0.059775934
138	0xbc50cdd2	-0.012744384
139	0xbe7586f7	-0.23977266
140	0xbe6e4c33	-0.23271255
141	0xbe4dca94	-0.20096809
142	0xbd27da05	-0.040979404
143	0x3e7516af	0.23934434
144	0xbdbd7484	-0.09250739
145	0xbdc5a52f	-0.09650647
146	0xbde4ee39	-0.1117825
147	0x3da3e9f9	0.08003611
148	0xbddc31c5	-0.1075168
149	0x3e05809b	0.1303734
150	0xbda87943	-0.08226254
151	0xbe352213	-0.1768878
152	0xbd212575	-0.039342362
153	0xbde4299a	-0.11140747
154	0xbd2c7c29	-0.042110596
155	0xbe0b3d17	-0.13597523
156	0xbcd713a9	-0.026254492
157	0x3d65f05e	0.056137435
158	0x3e449714	0.19198257
159	0x3e766dbb	0.24065296
160	0x3e3d2895	0.18472512
161	0x3e2016eb	0.15633743
162	0x3d87b870	0.066269755
163	0x3e3649a5	0.1780153
164	0xbd103d21	-0.035214547
165	0xbd54f263	-0.05198897
166	0xbe572d41	-0.21013357
167	0x3e66e3ab	0.22547786
168	0xbb93b809	-0.0045080227
169	0xbd9d3e0d	-0.07677851
170	0x3d2382dd	0.039919723
171	0x3e4bc60c	0.19899768
172	0x3c5ac9b2	0.013353752
173	0x3e84e93e	0.259592
174	0xbe552074	-0.20813161
175	0x3d469b2a	0.04848782
176	0xbe7bff2c	-0.24609059
177	0x3dbe1480	0.09281254
178	0xbe2ced3c	-0.16887373
179	0xbbc34748	-0.005959425
180	0x3ad10ca4	0.0015949202
181	0xbe3fa638	-0.18715751
182	0xbe3d3f82	-0.18481258
183	0xbe9ed29f	-0.31020066
184	0xbc2baab2	-0.010477709
185	0xbdb7fccc	-0.08983764
186	0xbdd90f9a	-0.10598679
187	0xbd19e255	-0.037569363
188	0xbe68145a	-0.22664014
189	0x3dea91d0	0.11453593
190	0x3dee8ce4	0.116479665
191	0x3cdac4c6	0.026705157
192	0xbd283b08	-0.04107192
193	0x3ddf1f54	0.10894647
194	0xbe3e5b6f	-0.18589567
195	0x3e1da0eb	0.15393417
196	0xbe1dc99a	-0.15408936
197	0x3deb7e3f	0.11498689
198	0x3e540cd5	0.2070802
199	0xbd6428db	-0.055703025
200	0x3db3c0f3	0.087770365
201	0xbc76c550	-0.015061691
202	0xbe049b03	-0.12949757
203	0xbcb544b3	-0.022127485
204	0x3e06b0a2	0.13153318
205	0x3e038624	0.1284414
206	0xbe65e39c	-0.22450107
207	0x3e94f5a7	0.29093668
208	0xbe185a08	-0.14878094
209	0x3e1f4550	0.15553784
210	0x3c3c44b8	0.011490993
211	0xbe8b71df	-0.27235314
212	0xbe5c720d	-0.21527882
213	0xbe276ef3	-0.16350918
214	0x3e28e1db	0.16492407
215	0x3db77b88	0.089591086
216	0xbe7a7d68	-0.24461901
217	0xbe3e22ee	-0.18568012
218	0xbe446968	-0.19180834
219	0xbe833e2f	-0.2563338
220	0xbe6d725c	-0.23188156
221	0x3ddc6d5b	0.107630454
222	0x3e07c786	0.13259706
223	0x3e5c6ffb	0.21527092
224	0xbdd1f614	-0.10252014
225	0x3bbaa9b9	0.005696502
226	0xbd00c98d	-0.031442214
227	0xbd76f2d7	-0.060290184
228	0x3dd1c8ca	0.102433756
229	0xbbbd1ca9	-0.005771239
230	0xbca9d8ca	-0.020733256
231	0x3d769bc3	0.06020714
232	0x3e5c36af	0.21505235
233	0x3df1e55e	0.118113264
234	0xbda78851	-0.08180297
235	0x3e30b733	0.17257385
236	0xbd6ba68a	-0.05753187
237	0xbe034d24	-0.12822396
238	0xbd1ecc7c	-0.03876923
239	0x3e58ca78	0.21170986
240	0xbe230800	-0.1592102
241	0xbe6aaedb	-0.22918265
242	0xbd01fc88	-0.031734973
243	0x3d2a5fb1	0.041595165
244	0xbe6a0911	-0.22855021
245	0x3e0e42a6	0.13892612
246	0x3e0ab13b	0.1354417
247	0xbe32158d	-0.17391033
248	0xbe584e2e	-0.21123573
249	0x3e2d3b95	0.1691726
250	0x3e17a66f	0.14809583
251	0x3d83c162	0.06433369
252	0x3d67285b	0.05643497
253	0x3d047d23	0.032345902
254	0xbe4ebdf2	-0.20189646
255	0x3e2c74d9	0.16841449

input_projection.bias f4 [64]
0	0x3ddc31b8	0.107516706
1	0x3d6615dd	0.056173194
2	0x3e18f592	0.14937428
3	0x3e4611ab	0.19342677
4	0xbe081e7f	-0.13292883
5	0x3dcac846	0.099014804
6	0xbdcf30b6	-0.10116713
7	0x3d14a6cc	0.036291882
8	0xbc82a658	-0.01594846
9	0x3e3f6d32	0.18693998
10	0xbe82c598	-0.25541377
11	0xbe1e8960	-0.15482092
12	0x3e3a5c52	0.1819928
13	0xbe5d0e93	-0.21587591
14	0xbe4daa81	-0.20084573
15	0x3db6152b	0.08890756
16	0xbe796504	-0.2435494
17	0x3cdf1316	0.02723078
18	0xbe14b9b7	-0.1452397
19	0x3e84b9ac	0.25922906
20	0x3d6b070c	0.057379767
21	0xbe357c35	-0.17723162
22	0x3e2a5d2a	0.16637102
23	0x3c96c411	0.018404039
24	0xbde61d8b	-0.112361036
25	0x3e52ca92	0.20585087
26	0x3e3cdf7b	0.18444626
27	0x3e7f8768	0.24953997
28	0xbe446073	-0.19177417
29	0x3e55b4ba	0.20869723
30	0xbe140ba2	-0.14457563
31	0xbb0be7ee	-0.0021347958
32	0xbe625fd4	-0.22106868
33	0xbe00941e	-0.12556502
34	0xbe0c3472	-0.13691881
35	0xbe82ad88	-0.2552302
36	0xbda20aef	-0.07912242
37	0xbe84eea2	-0.25963312
38	0x3d620dfd	0.05518912
39	0xbe2af040	-0.1669321
40	0xbe821874	-0.2540928
41	0x3e264a19	0.16239204
42	0xbe2ce7df	-0.16885327
43	0x3bd3970f	0.0064572166
44	0x3e3ac0e9	0.18237652
45	0xbe81e259	-0.25368002
46	0x3e798e4e	0.24370691
47	0x3dfc96a5	0.12333421
48	0x3e78454a	0.24245182
49	0x3d692f54	0.0569299
50	0xbdadf550	-0.08494055
51	0x3e6853ff	0.22688292
52	0xbd784176	-0.060609303
53	0x3e069e94	0.1314643
54	0x3e3449fa	0.17606345
55	0xbdc88ba4	-0.09792259
56	0xbd29593d	-0.04134487
57	0xbe29c13f	-0.16577624
58	0x3e23eb42	0.16007712
59	0x3e549be7	0.20762597
60	0xbda64157	-0.08117931
61	0xbd465e6f	-0.048429903
62	0xbd2769f6	-0.040872537
63	0x3e72f521	0.23726322

transformer_encoder.layers.0.self_attn.in_proj_weight f4 [192, 64]
0	0x3d4b9943	0.04970671
1	0x3c63d296	0.013905188
2	0x3c8b1c99	0.01698141
3	0xbce5bd67	-0.028044416
4	0x3e187c45	0.14891155
5	0x3dd94bda	0.10610171
6	0x3dc10088	0.094239295
7	0xbde35a2e	-0.11101185
8	0x3d8dfa08	0.06932455
9	0x3de63aee	0.11241709
10	0x3dd07deb	0.10180267
11	0x3e1a3973	0.15060978
12	0x3dd49e4d	0.10381756
13	0xbddfb75d	-0.10923646
14	0xbd6a8617	-0.057256784
15	0x3e07585b	0.13217299
16	0xbd0a1fd3	-0.033721756
17	0xbe01a496	-0.12660441
18	0xbe1b0a39	-0.15140618
19	0xbd96659a	-0.07343598
20	0xbddbe8fe	-0.10737799
21	0x3cd0a860	0.025470912
22	0xbda415bd	-0.08011959
23	0xbe069e17	-0.13146244
24	0xbd4f1359	-0.05055556
25	0x3ddcaad9	0.10774774
26	0x3e12bc7b	0.14329712
27	0x3df2a7ab	0.118483864
28	0xbbad807c	-0.0052948575
29	0xbdc7bdb5	-0.097529806
30	0x3d1204ec	0.035649225
31	0xbe1c4786	-0.15261659
32	0xbe1b46c5	-0.15163715
33	0xbe19197d	-0.1495113
34	0x3db21b8b	0.0869666
35	0xbc63687e	-0.013879893
36	0xbd9b72ce	-0.07590257
37	0xbd8fe404	-0.070259124
38	0x3d32072c	0.04346387
39	0x3cff1f98	0.031142995
40	0x3dccaec8	0.099942744
41	0x3e077519	0.13228263
42	0xbcae2aeb	-0.0212607
43	0xbe1cc120	-0.15308046
44	0xbd1e7a54	-0.03869088
45	0x3d2c0761	0.041999225
46	0xbe0e348a	-0.1388723
47	0xbdf342e3	-0.11877992
48	0x3d97cf28	0.07412559
49	0x3e0b80ad	0.13623305
50	0xbd4ddf35	-0.050261695
51	0x3c9bf22c	0.019036375
52	0xbde4ded1	-0.11175311
53	0x3d80d07d	0.06289766
54	0xbe0c6432	-0.13710096
55	0xbd3181ad	-0.04333656
56	0x3d5e2c8c	0.054241702
57	0x3da98a68	0.08278352
58	0xbe0a0713	-0.13479261
59	0x3da16719	0.078809924
60	0x3e1c19e5	0.15244253
61	0x3dcee2d3	0.10101857
62	0x3d818743	0.06324627
63	0xbe16ceb4	-0.14727288
64	0xbd47dd4b	-0.048795026
65	0xbcd990ed	-0.026558364
66	0x3d277d71	0.040891115
67	0x3d9a04f4	0.07520476
68	0xbd9a284c	-0.07527217
69	0x3df266e9	0.11836035
70	0x3d96477d	0.07337854
71	0x3ccca27a	0.024979819
72	0xbc679fa5	-0.014137183
73	0x3cf4a88a	0.029865522
74	0xbdfce34b	-0.1234804
75	0xba4869df	-0.00076451706
76	0xbe12a3dd	-0.14320321
77	0xbb318919	-0.0027089773
78	0xbdf87c43	-0.12133076
79	0xbca2dfa4	-0.01988203
80	0xbd950c8c	-0.07277784
81	0x3dab17af	0.08354127
82	0xbc487a7b	-0.012236233
83	0x3dbcbcba	0.09215684
84	0x3cededbf	0.02904403
85	0x3cef2c55	0.029195944
86	0x3db74033	0.08947792
87	0xbe0a64a3	-0.13514952
88	0xbdd281bd	-0.10278652
89	0x390c6fd1	0.00013393095
90	0xbde8d2aa	-0.11368306
91	0xbe02729a	-0.1273903
92	0x3e0326c1	0.12807752
93	0x3db653c2	0.08902694
94	0x3e00561d	0.1253285
95	0xbc21dff9	-0.009880059
96	0xbd6465c4	-0.055761114
97	0x3db625c1	0.0889392
98	0xbe1c3931	-0.15256192
99	0x3c08660e	0.008325113
100	0xbdf2cd32	-0.11855544
101	0xbdcb3377	-0.099219255
102	0x3e1a6a5b	0.15079634
103	0x3ddb788e	0.10716353
104	0x3d1b24a4	0.03787674
105	0x3e173c38	0.14769065
106	0xbd085424	-0.033283368
107	0xbdb9a30d	-0.090643026
108	0x3dcf5827	0.101242356
109	0x3b3929f5	0.0028253768
110	0xbde07953	-0.10960641
111	0x3c117ed4	0.008880336
112	0x3dacba39	0.08433957
113	0xbd0d5c98	-0.034512132
114	0x3caeaa68	0.02132149
115	0x3d1d96b7	0.03847381
116	0xbe0caa94	-0.13736945
117	0xbdcd2f18	-0.10018748
118	0x3cb01d1f	0.021498261
119	0x3e09e8e8	0.13467753
120	0x3dbb29d5	0.09138838
121	0x3d0d4988	0.034493953
122	0xbc906802	-0.01762772
123	0x3db4706a	0.08810504
124	0x3e0ceb24	0.13761574
125	0xbd416307	-0.04721358
126	0x3da8aff4	0.082366854
127	0xbda67f14	-0.08129707
128	0x3c88c43f	0.01669514
129	0x3daeae03	0.08529284
130	0x3d284eb8	0.041090697
131	0xbde77e4d	-0.11303387
132	0x3cd54d4b	0.026037833
133	0x3ba12942	0.0049182484
134	0x3d7c65c7	0.0616205
135	0x3d9148ca	0.070939615
136	0xbd7bdf2b	-0.061492126
137	0xbdd8b146	-0.10580687
138	0xbc3e12b2	-0.011601137
139	0x3c0f27c7	0.008737511
140	0x3da34926	0.07972936
141	0x3d82e577	0.06391423
142	0xbdabf5dc	-0.08396503
143	0x3e00685f	0.12539814
144	0x3dab40d4	0.08361974
145	0xbd89f53e	-0.06736229
146	0xbdd08206	-0.1018105
147	0xbc9c860f	-0.019106893
148	0x3d5614b3	0.052265834
149	0x3da249cd	0.07924233
150	0xbd12c6bc	-0.03583406
151	0xbda54353	-0.08069482
152	0xbd9f59ae	-0.07780777
153	0xbe1a0878	-0.15042293
154	0xbe05a9f5	-0.13053115
155	0x3e0c534c	0.1370365
156	0xbd753a35	-0.059869964
157	0x3e09faab	0.13474528
158	0x3e15d300	0.14631271
159	0xbdafb274	-0.08578959
160	0x3dc43b32	0.09581603
161	0xbdeadb78	-0.114676416
162	0x3d83fbdf	0.06444525
163	0x3d678421	0.056522492
164	0x3df35eff	0.118833534
165	0x3c67d3c6	0.014149612
166	0x3d353a73	0.044245195
167	0x3db5ac95	0.08870808
168	0x3d776ecc	0.0604084
169	0x3e1a1696	0.15047678
170	0x3d0caf06	0.034346603
171	0xbd063e71	-0.032774393
172	0xbd3d1554	-0.04616292
173	0x3d900f99	0.07034225
174	0x3d660b1e	0.056162946
175	0xbcd7e26d	-0.026353085
176	0xbde1813f	-0.1101098
177	0x3d92c47a	0.07166381
178	0xbdd0cd45	-0.10195402
179	0xbc1dd7e5	-0.009633993
180	0x3d30fcde	0.043209903
181	0xbe1468b7	-0.1449307
182	0xbc861578	-0.016367659
183	0xbdfa7d84	-0.122309715
184	0xbd21344c	-0.039356515
185	0xbdcb0c32	-0.099144354
186	0xbdda4bbd	-0.10658977
187	0xbd6fd954	-0.05855687
188	0xbdd9ea94	-0.10640445
189	0xbcd540be	-0.026031848
190	0xbdf5db54	-0.12004724
191	0xbdf1ad75	-0.118006624
192	0xbd3c7f8b	-0.046020072
193	0xbc83bc28	-0.01608093
194	0x3e1902ea	0.14942518
195	0xbd81f34f	-0.063452356
196	0xbdc931d9	-0.09823961
197	0xbd833710	-0.06406987
198	0x3a298644	0.00064668455
199	0xbd108a21	-0.03528798
200	0xbcd96d41	-0.026541354
201	0xbdfbe566	-0.12299614
202	0x3cb24d5d	0.021765405
203	0xbe0a757e	-0.13521382
204	0x3c4f42a2	0.012650164
205	0x3e169ab4	0.14707452
206	0xbda67e24	-0.08129528
207	0xbda7f401	-0.08200837
208	0x3dd142ac	0.10217795
209	0x3dd27b65	0.10277442
210	0x3e14e739	0.1454133
211	0x3e1c3536	0.15254673
212	0x3dd50f3c	0.10403296
213	0x3d362268	0.044466406
214	0x3c079550	0.008275345
215	0xbd971bcd	-0.073783495
216	0x3ce96a3d	0.028493041
217	0xbbe3b7cc	-0.0069494005
218	0xbd673311	-0.056445185
219	0xbe0c3c60	-0.13694906
220	0xbd6898b1	-0.056786243
221	0xbdfdd24a	-0.12393625
222	0xbd2b5116	-0.041825376
223	0xbe175565	-0.14778669
224	0x3c450e7b	0.012027378
225	0xbdf0cdd6	-0.1175801
226	0xbdb71a88	-0.08940607
227	0x3c918587	0.017763866
228	0xbd11ce7f	-0.03559732
229	0x3dff9d52	0.12481178
230	0x3c9a4f14	0.018836536
231	0xbd15c0f3	-0.036560964
232	0xbddc92e3	-0.10770204
233	0xbce95bc5	-0.028486142
234	0xbd121089	-0.0356603
235	0x3cdf5030	0.027259916
236	0x3e134eb4	0.14385492
237	0xbcb27678	-0.021785006
238	0xbe1095c9	-0.14119639
239	0xbe181a02	-0.14853671
240	0x3d80f125	0.06295995
241	0x3dda0f9e	0.1064751
242	0x3dcb164d	0.09916363
243	0xbdab4b42	-0.08363964
244	0x3daef099	0.08541984
245	0xbcd87341	-0.026422145
246	0x3ccf1ebc	0.02528321
247	0xbdc3cdfb	-0.09560772
248	0xbdb7255a	-0.08942671
249	0x3b10654b	0.0022033032
250	0xbe0030b4	-0.12518579
251	0xbd148e7a	-0.03626869
252	0x3e03d233	0.12873153
253	0x3e0776b7	0.1322888
254	0xbd59f46f	-0.053211626
255	0xbde1f6bf	-0.11033391

transformer_encoder.layers.0.self_attn.in_proj_bias f4 [192]
0	0x00000000	0.0
1	0x00000000	0.0
2	0x00000000	0.0
3	0x00000000	0.0
4	0x00000000	0.0
5	0x00000000	0.0
6	0x00000000	0.0
7	0x00000000	0.0
8	0x00000000	0.0
9	0x00000000	0.0
10	0x00000000	0.0
11	0x00000000	0.0
12	0x00000000	0.0
13	0x00000000	0.0
14	0x00000000	0.0
15	0x00000000	0.0
16	0x00000000	0.0
17	0x00000000	0.0
18	0x00000000	0.0
19	0x00000000	0.0
20	0x00000000	0.0
21	0x00000000	0.0
22	0x00000000	0.0
23	0x00000000	0.0
24	0x00000000	0.0
25	0x00000000	0.0
26	0x00000000	0.0
27	0x00000000	0.0
28	0x00000000	0.0
29	0x00000000	0.0
30	0x00000000	0.0
31	0x00000000	0.0
32	0x00000000	0.0
33	0x00000000	0.0
34	0x00000000	0.0
35	0x00000000	0.0
36	0x00000000	0.0
37	0x00000000	0.0
38	0x00000000	0.0
39	0x00000000	0.0
40	0x00000000	0.0
41	0x00000000	0.0
42	0x00000000	0.0
43	0x00000000	0.0
44	0x00000000	0.0
45	0x00000000	0.0
46	0x00000000	0.0
47	0x00000000	0.0
48	0x00000000	0.0
49	0x00000000	0.0
50	0x00000000	0.0
51	0x00000000	0.0
52	0x00000000	0.0
53	0x00000000	0.0
54	0x00000000	0.0
55	0x00000000	0.0
56	0x00000000	0.0
57	0x00000000	0.0
58	0x00000000	0.0
59	0x00000000	0.0
60	0x00000000	0.0
61	0x00000000	0.0
62	0x00000000	0.0
63	0x00000000	0.0
64	0x00000000	0.0
65	0x00000000	0.0
66	0x00000000	0.0
67	0x00000000	0.0
68	0x00000000	0.0
69	0x00000000	0.0
70	0x00000000	0.0
71	0x00000000	0.0
72	0x00000000	0.0
73	0x00000000	0.0
74	0x00000000	0.0
75	0x00000000	0.0
76	0x00000000	0.0
77	0x00000000	0.0
78	0x00000000	0.0
79	0x00000000	0.0
80	0x00000000	0.0
81	0x00000000	0.0
82	0x00000000	0.0
83	0x00000000	0.0
84	0x00000000	0.0
85	0x00000000	0.0
86	0x00000000	0.0
87	0x00000000	0.0
88	0x00000000	0.0
89	0x00000000	0.0
90	0x00000000	0.0
91	0x00000000	0.0
92	0x00000000	0.0
93	0x00000000	0.0
94	0x00000000	0.0
95	0x00000000	0.0
96	0x00000000	0.0
97	0x00000000	0.0
98	0x00000000	0.0
99	0x00000000	0.0
100	0x00000000	0.0
101	0x00000000	0.0
102	0x00000000	0.0
103	0x00000000	0.0
104	0x00000000	0.0
105	0x00000000	0.0
106	0x00000000	0.0
107	0x00000000	0.0
108	0x00000000	0.0
109	0x00000000	0.0
110	0x00000000	0.0
111	0x00000000	0.0
112	0x00000000	0.0
113	0x00000000	0.0
114	0x00000000	0.0
115	0x00000000	0.0
116	0x00000000	0.0
117	0x00000000	0.0
118	0x00000000	0.0
119	0x00000000	0.0
120	0x00000000	0.0
121	0x00000000	0.0
122	0x00000000	0.0
123	0x00000000	0.0
124	0x00000000	0.0
125	0x00000000	0.0
126	0x00000000	0.0
127	0x00000000	0.0
128	0x3c5d7dbb	0.013518746
129	0xbce841f8	-0.028351769
130	0x3c528d20	0.01285103
131	0x3c8ffeb1	0.017577501
132	0x3c6f7a0f	0.014616503
133	0xbcc4d8e9	-0.024029212
134	0xbd332235	-0.043733794
135	0x3ce1d7b4	0.027568676
136	0xbc44dd44	-0.012015644
137	0xbc9b6012	-0.018966708
138	0xbca00bd4	-0.01953689
139	0xbc3bb1c7	-0.01145596
140	0xbd215ec9	-0.039397035
141	0xbd134c4b	-0.03596143
142	0xbcf9a12d	-0.030472362
143	0xbcf75e30	-0.03019628
144	0x3d0efdac	0.03490989
145	0x3c828e59	0.015937017
146	0x3cfbf03f	0.030754207
147	0xbc8ebdcf	-0.017424492
148	0xbacb5017	-0.001551154
149	0x3cc35ea7	0.023848845
150	0xbb3f26e8	-0.0029167477
151	0x3b0d1231	0.0021525736
152	0x3bf43134	0.0074521545
153	0xbc916375	-0.01774762
154	0xbc5b1afb	-0.013373132
155	0x3caae5e0	0.020861566
156	0xbcfa0ff4	-0.030525185
157	0x3bc97308	0.006147746
158	0xbce83e61	-0.028350057
159	0x3c9cf4c4	0.019159682
160	0x3d040aad	0.032236744
161	0xbc774412	-0.015091913
162	0x3c456005	0.012046819
163	0x3ba9be66	0.005180168
164	0x37d51fc0	2.5406363e-05
165	0x3ccd49dc	0.025059633
166	0x3cc5408c	0.02407863
167	0x3ca2fe46	0.019896638
168	0x3c213376	0.009838929
169	0xbc86e62c	-0.016467176
170	0x3c89816d	0.016785348
171	0xbc8bbcc6	-0.017057788
172	0x3b3efbbc	0.0029141745
173	0xbc57dee1	-0.013175697
174	0xbc90e1c3	-0.017685777
175	0x3bfb0a2d	0.007661125
176	0xbc778ca7	-0.015109218
177	0x3ad5819e	0.0016289239
178	0xbcccf7c9	-0.025020497
179	0xbcd07d15	-0.025450269
180	0x3d17ced1	0.03706247
181	0xbc37a764	-0.011209343
182	0xbc3d15ba	-0.011540825
183	0x3a9662ed	0.0011473574
184	0x3c6d6bb3	0.0144910095
185	0x3bdfe23a	0.006832388
186	0xbcc270d0	-0.023735434
187	0x3b06a497	0.002054488
188	0x3c5ec805	0.013597493
189	0xbd1a67a6	-0.037696503
190	0xbd33231d	-0.04373466
191	0x3cca0a61	0.024663152

transformer_encoder.layers.0.self_attn.out_proj.weight f4 [64, 64]
0	0xbc9a199d	-0.018811041
1	0xbda5cf8d	-0.08096228
2	0xbe008036	-0.12548909
3	0x3cf38095	0.029724399
4	0xbd8d617d	-0.0690336
5	0xbd58e96c	-0.052956983
6	0x3d17f44d	0.037098218
7	0xbd2edd15	-0.04269131
8	0x3c5d5b51	0.013510541
9	0x3ddbd189	0.10733325
10	0x3d8c3070	0.06845176
11	0x3de3ec2e	0.11129032
12	0x3dafd617	0.08585756
13	0xbcde04a0	-0.027101815
14	0xbd3827c1	-0.044959787
15	0x3de90e07	0.11379629
16	0xbdce5a93	-0.100758694
17	0xbbc3ad29	-0.00597157
18	0x3dd73e6f	0.10509955
19	0x3dbc15ec	0.09183869
20	0x3cb6b9b5	0.022305349
21	0x3db1b898	0.086777866
22	0xbdaa3570	-0.08310974
23	0x3dd8020e	0.10547267
24	0xbc3c5a20	-0.011496097
25	0x3d6f2476	0.05838438
26	0x3d6b5b0d	0.05745988
27	0x3db9af9b	0.09066697
28	0x3dd86909	0.10566909
29	0xbda88331	-0.08228148
30	0x3dff9ee2	0.12481476
31	0x3db430b1	0.0879835
32	0x3d91b0bd	0.07113788
33	0x3cca442f	0.024690716
34	0xbb6234ca	-0.0034516328
35	0xbd884486	-0.06653695
36	0xbdee672e	-0.11640774
37	0xbb4d747c	-0.0031349948
38	0xbda266be	-0.07929753
39	0xbd9d2465	-0.07672957
40	0xbe0989fb	-0.13431542
41	0x3d2cda88	0.042200595
42	0x3c582c70	0.0131941885
43	0xbd3cc2e6	-0.046084307
44	0xbd252e8c	-0.040327594
45	0x3e02ccba	0.1277341
46	0xbd8d16aa	-0.068890885
47	0xbcd3bdaa	-0.025847275
48	0xbd367e6c	-0.04455416
49	0x3bbc52a4	0.005747156
50	0x3bb2eb7b	0.0054602004
51	0xbce4fa43	-0.027951365
52	0x3d35a1a1	0.044343594
53	0x3e41fa8d	0.18943234
54	0x3ddd0aad	0.10793052
55	0x3db6a38b	0.08917912
56	0xbd9b22e1	-0.07575012
57	0xbd8e59d5	-0.06950728
58	0x3daa59a8	0.08317882
59	0xbd04ddeb	-0.0324382
60	0xbc1bcdb8	-0.009509496
61	0xbcbddb92	-0.023175988
62	0xbb606123	-0.0034237585
63	0xbccd0cd3	-0.02503053
64	0x3d9e4bcd	0.077293016
65	0x3c2aa4c0	0.010415256
66	0x3e1e7e5c	0.1547789
67	0x3e13c76f	0.14431547
68	0xbddcb213	-0.107761525
69	0xbb8f65dc	-0.0043761563
70	0xbc70336b	-0.0146606965
71	0xbc94c2cb	-0.01815929
72	0x3b2047f9	0.0024456962
73	0x3d870337	0.0659241
74	0xbd610821	-0.054939393
75	0x3d3271ad	0.04356544
76	0x3d06e22c	0.032930538
77	0xbdfda957	-0.12385815
78	0xbc69d3f1	-0.014271722
79	0xbde02a17	-0.10945528
80	0x3d25b82a	0.040458836
81	0xbda8d685	-0.08244041
82	0x3be96d44	0.007123621
83	0xbb12c8b1	-0.0022397453
84	0x3da6ef69	0.081511326
85	0xbdd094e7	-0.10184651
86	0x3bb5d3e2	0.00554894
87	0x3ddccfdc	0.107818335
88	0x3dadb50f	0.084818
89	0xb8c34af2	-9.312284e-05
90	0x3d390fe7	0.04518118
91	0x3df815a5	0.12113503
92	0xbd020078	-0.03173873
93	0xbd9fe74a	-0.07807787
94	0x3d2c96ab	0.042135876
95	0xbcdfcfdf	-0.0273208
96	0x3c913c20	0.017728865
97	0x3d080ebb	0.033217173
98	0xbda992b2	-0.08279933
99	0xbd4015ff	-0.046895977
100	0x3cbc5d2a	0.022993643
101	0x3c366f49	0.011134931
102	0x3da18ebc	0.078885525
103	0xbc8b5579	-0.01700853
104	0x3e2152ad	0.15754195
105	0x3cc2dc20	0.023786604
106	0xbd16d594	-0.036824778
107	0x3d940c4e	0.072289094
108	0xbd81f63f	-0.06345796
109	0x3d8e9558	0.06962079
110	0x3d8f942f	0.07010686
111	0xbe008b8a	-0.1255323
112	0x3dcb65df	0.0993154
113	0x3dcbca54	0.099507004
114	0xbdda63c1	-0.10663558
115	0xbdcf4c61	-0.1012199
116	0xbd950024	-0.072754174
117	0xbb90cfd3	-0.004419306
118	0xbdc7f259	-0.09763021
119	0xbe044d4c	-0.12920111
120	0xbdaa11ed	-0.083042
121	0x3d8078d3	0.062730454
122	0xbe0d630e	-0.13807318
123	0x3dec97ec	0.11552414
124	0xbd35dfca	-0.044402875
125	0x3c776c10	0.015101448
126	0xbe0a8243	-0.13526253
127	0xbdb5ce3c	-0.08877227
128	0xbd30f657	-0.043203678
129	0x3c040f1f	0.008060246
130	0xbdb91f14	-0.09039131
131	0x3b9d58f1	0.0048018624
132	0x3d2bca0e	0.04194074
133	0xbd68d1b8	-0.05684063
134	0xbd8b11eb	-0.06790527
135	0x3dfeefc5	0.12448076
136	0x3dc287b3	0.09498539
137	0xbd34e08c	-0.044159457
138	0xbd9c260e	-0.07624446
139	0xbdd32957	-0.10310619
140	0x3c99284c	0.018695973
141	0xbd85457a	-0.06507392
142	0xbd49bb20	-0.049250722
143	0xbd8249b0	-0.06361711
144	0xbdb1c378	-0.08679861
145	0x3d7d22fb	0.061800938
146	0xbc926912	-0.017872367
147	0x3e0f95be	0.14021966
148	0x3c25b7ed	0.010114652
149	0x3d9fd3af	0.07804047
150	0xbd9e5255	-0.07730547
151	0x3d3f2b73	0.046672296
152	0xbda709cf	-0.08156168
153	0x3cda5ccc	0.026655577
154	0x3c4797fd	0.012182233
155	0x3d1d1a0a	0.03835491
156	0x3ce5b16e	0.028038707
157	0xbe16b388	-0.14716923
158	0x3d1d6105	0.038422603
159	0xbdb3e397	-0.08783644
160	0x3d7dc1f4	0.061952546
161	0xbcc316e3	-0.023814624
162	0xbd435d55	-0.04769643
163	0xbddce94f	-0.107866876
164	0xbdb6e656	-0.08930652
165	0xbdae26c7	-0.0850349
166	0xbc7f367a	-0.015576953
167	0xbd76f080	-0.060287952
168	0x3c868e55	0.016425291
169	0xbdda4b0c	-0.10658845
170	0x3e0d671a	0.13808861
171	0xbd2d0557	-0.04224142
172	0x3ddafe54	0.106930405
173	0x3d053660	0.03252256
174	0x3d0d280a	0.034462012
175	0x3d8aaa59	0.067707725
176	0xbbba01c7	-0.0056764814
177	0x3c9f5a79	0.01945232
178	0x3da24702	0.079237
179	0xbd97a1b6	-0.07403891
180	0xbdb45f27	-0.08807211
181	0x3cf44276	0.029816847
182	0xbd43048d	-0.04761176
183	0x3d9fb31d	0.07797835
184	0x3d7c9397	0.06166419
185	0x3db2c42e	0.087288246
186	0xbb33d830	-0.002744209
187	0x3dbfc157	0.093630485
188	0xbaf61933	-0.001877582
189	0xbc948af0	-0.018132657
190	0xbd9e36bc	-0.077252835
191	0x3c1ccea7	0.009570754
192	0x3e13e14c	0.14441413
193	0xbdb7ae0e	-0.08968745
194	0x3d8be3da	0.068305686
195	0xbd6ad2c2	-0.0573299
196	0xbe146008	-0.14489758
197	0xbd5b38b1	-0.053520862
198	0xbdddd422	-0.10831477
199	0xbda3def1	-0.08001507
200	0x3d8599b9	0.06523461
201	0xbdb1cee9	-0.08682043
202	0xbd9b52a6	-0.07584123
203	0x3d2d68ff	0.04233646
204	0x3d86a358	0.06574124
205	0xbe1f39df	-0.1554942
206	0xbd95cd7e	-0.07314585
207	0xbddc0ab9	-0.10744233
208	0x3d94dcd1	0.0726868
209	0x3df084a8	0.11744052
210	0x3d9f88ff	0.07789802
211	0x3ddd5fdb	0.108092986
212	0xbd72f2ba	-0.059313513
213	0x3d2b62d1	0.041842286
214	0x3d446b9d	0.04795419
215	0x3dc44d61	0.09585071
216	0x3dbf2913	0.09334006
217	0xbd81c097	-0.06335562
218	0xbd776b85	-0.060405273
219	0x3dacd89d	0.08439753
220	0x3dfa83c0	0.122321606
221	0x3d5c83ff	0.05383682
222	0xbcdc759c	-0.02691155
223	0x3d9655d5	0.0734059
224	0xbc89f144	-0.016838677
225	0x3dd04043	0.10168507
226	0xbbb22e68	-0.005437661
227	0x3d94c134	0.07263413
228	0xbd837374	-0.06418505
229	0x3dace4c1	0.08442069
230	0xbda075ed	-0.078349926
231	0x3dc7f110	0.09762776
232	0x3d830008	0.0639649
233	0xbd662132	-0.056184
234	0x3c946a69	0.018117147
235	0xbde91793	-0.113814496
236	0x3e0af82f	0.13571237
237	0xbd77209a	-0.060333826
238	0x3d7c65bb	0.061620455
239	0x3bd23c1e	0.006415858
240	0x39b0c288	0.00033714273
241	0x3d845a27	0.06462508
242	0xbcd8809b	-0.026428511
243	0xbd1e139a	-0.038592912
244	0x3dbeeb79	0.093222566
245	0x3cc03a69	0.023465352
246	0x3dcfba26	0.10142927
247	0xbdd0313a	-0.10165639
248	0xbced163b	-0.028941264
249	0xbd391cc8	-0.045193464
250	0x3dbd06f1	0.092298396
251	0x3cdfe795	0.027332107
252	0x3d489a83	0.04897548
253	0x3db1fcfe	0.086908326
254	0xbd212c49	-0.039348874
255	0x3dc48196	0.09595029

transformer_encoder.layers.0.self_attn.out_proj.bias f4 [64]
0	0xbd053c5c	-0.032528266
1	0x3ce621c9	0.028092282
2	0x3d299b6b	0.041407984
3	0x3cf77bb1	0.030210348
4	0x3d109c86	0.035305522
5	0x3cce48fb	0.025181284
6	0xbd0a1d4c	-0.033719346
7	0x3cb12bc1	0.021627309
8	0xbc94d468	-0.01816769
9	0xbc0420d1	-0.008064465
10	0xbcfd04ce	-0.03088608
11	0xbca96a92	-0.0206807
12	0xbbf12b5a	-0.0073599042
13	0x3c807c0f	0.015684156
14	0x3cfb7257	0.03069417
15	0xba8fe51c	-0.0010978314
16	0xbbfe83c7	-0.007767174
17	0x3c0ddce2	0.00865862
18	0xbd03ffd6	-0.032226406
19	0x3d29a630	0.041418254
20	0xbb2ce5ca	-0.0026382082
21	0x3c901a7b	0.017590752
22	0xbc12c6da	-0.008958543
23	0x3d41a914	0.047280386
24	0xbca3d61c	-0.019999556
25	0xbba8218d	-0.0051309527
26	0xbd0b2754	-0.033973053
27	0x3c3269a6	0.010889446
28	0xbcf908e2	-0.030399743
29	0xbc0b18f0	-0.008489832
30	0xbb887e5a	-0.004165453
31	0x3bddbc34	0.0067668203
32	0xbc4975fb	-0.012296195
33	0xbc866b18	-0.016408488
34	0xbd23f8a6	-0.04003205
35	0xbc870f96	-0.016486924
36	0xbabe5275	-0.0014520424
37	0xbbaf35de	-0.0053469976
38	0xbd339235	-0.043840606
39	0xbc428fb6	-0.011875084
40	0xbca66d4d	-0.02031579
41	0x3c76bf9a	0.01506033
42	0x3c91a6c4	0.017779715
43	0x3cc991a2	0.024605576
44	0x3cf05220	0.029336035
45	0xbccc5eff	-0.024947641
46	0x3c1a2bce	0.009409858
47	0x3b997aa4	0.0046838094
48	0x3c2046b4	0.009782482
49	0xbd73c4e7	-0.059513953
50	0x3c7fcc87	0.015612728
51	0x3d466a41	0.048441175
52	0xbc932f06	-0.017966758
53	0xbc5d2b03	-0.013499024
54	0xbc590ee0	-0.013248175
55	0x3c96fbbe	0.018430587
56	0xbd0153ba	-0.03157399
57	0x3ce32a91	0.027730258
58	0x3ccfe13a	0.025375951
59	0x3ba61b91	0.005069204
60	0x3c0bb0a1	0.008525998
61	0xbcefdfe2	-0.02928156
62	0x3cb9aa3f	0.022664187
63	0x3cbf7791	0.023372443

transformer_encoder.layers.0.linear1.weight f4 [128, 64]
0	0x3d3235b1	0.043508235
1	0xbcd60ba7	-0.026128603
2	0xbd8a0ec2	-0.06741096
3	0x3d85c952	0.065325394
4	0xbd8bdf17	-0.068296604
5	0xbd701396	-0.05861243
6	0x3d90e248	0.0707441
7	0x3cc14954	0.023594536
8	0xbdb305e7	-0.0874136
9	0x3ce99ba3	0.028516596
10	0x3d254901	0.040352825
11	0xbd934534	-0.07190934
12	0x3dd0591d	0.10173247
13	0x3d4e5f8b	0.050384086
14	0xbdc8d2d1	-0.09805835
15	0x3d8b1340	0.06790781
16	0x3cccd824	0.025005408
17	0xbc03e09f	-0.008049159
18	0x3d251e2a	0.04031197
19	0x3c8a595f	0.016888319
20	0xbd3edcc3	-0.046597254
21	0x3e2070c1	0.15668012
22	0xbd433f80	-0.04766798
23	0xbd6df443	-0.058094274
24	0xbbe27eb2	-0.006912076
25	0x3c6bf347	0.014401264
26	0x3da8aa01	0.08235551
27	0x3cda6aea	0.026662309
28	0xbd06c187	-0.032899406
29	0xbd3833c4	-0.044971243
30	0xbdb9468c	-0.09046659
31	0xbc7aa798	-0.0152987465
32	0xbd246994	-0.04013975
33	0x3cc3c16f	0.023895947
34	0xbcf383bc	-0.029725902
35	0x3bc72071	0.0060768654
36	0x3d9eeae8	0.077596486
37	0xbd5d21e8	-0.053987414
38	0xbc71a612	-0.014749067
39	0x3cdde604	0.027087219
40	0xbc1367b4	-0.008996893
41	0x3d0d7987	0.034539726
42	0xbd34268d	-0.043982077
43	0x3d02bb18	0.031916708
44	0xbe0c5cd5	-0.13707288
45	0x3de58379	0.11206717
46	0x3d97c57a	0.074107125
47	0x3dfa1c3e	0.12212418
48	0x3db4f215	0.08835236
49	0xbc419785	-0.01181591
50	0x3db66988	0.08906847
51	0xbdb7008c	-0.08935651
52	0x3d50888e	0.05091148
53	0xbcb6ac1a	-0.022298861
54	0xbe0347e4	-0.12820393
55	0x3cb58202	0.02215672
56	0x3c216c68	0.009852506
57	0xbbb25ac2	-0.005442948
58	0xbde1e655	-0.110302605
59	0xbd6a12fe	-0.05714702
60	0x3d46b351	0.048510853
61	0x3c68c603	0.014207366
62	0x3d07a11e	0.033112638
63	0x3da4fb9e	0.08055805
64	0x3d0ec98d	0.034860183
65	0x3d5e0382	0.054202564
66	0x3d259c8d	0.0404325
67	0x3db259e8	0.087085545
68	0x3dbcd8b0	0.09221017
69	0xbd7236e0	-0.059134364
70	0x3d5f9d1c	0.05459319
71	0xbdf13375	-0.11777393
72	0x3df9b749	0.12193162
73	0xbcc29f99	-0.023757743
74	0xbe0fbb8f	-0.14036392
75	0xbc8bbdb8	-0.017058238
76	0xbd242e4b	-0.04008321
77	0x3d97428d	0.073857404
78	0x3d64005c	0.055664405
79	0xbdc0735f	-0.09397005
80	0xbe1f3e8f	-0.15551208
81	0x3df37ffe	0.11889647
82	0x3dee8def	0.116481654
83	0x3c470de1	0.012149305
84	0x3dab4d3c	0.08364341
85	0x3e154835	0.14578326
86	0xbe09928a	-0.13434806
87	0xbd8f3389	-0.069922514
88	0x3dfd23c2	0.12360336
89	0x3de01897	0.1094219
90	0x3db2c882	0.0872965
91	0xbc307422	-0.010769876
92	0x3dcb7f7f	0.09936427
93	0xbb782227	-0.0037862153
94	0xbc8e4ef4	-0.017371632
95	0xbda47ee3	-0.08032014
96	0xbcc33ed9	-0.023833679
97	0xbd8a214a	-0.06744631
98	0x3d8c6739	0.06855626
99	0x3dce9dca	0.100886896
100	0xbd5d2a21	-0.053995255
101	0xbdcaf3c2	-0.09909774
102	0xbc10fcb4	-0.008849312
103	0x3bfb7b28	0.0076745935
104	0x3dbd852e	0.09253918
105	0x3cb71e8b	0.022353431
106	0x3dd5e32d	0.10443721
107	0x3db982ce	0.09058152
108	0x3e023b76	0.12717995
109	0x3ceb0d2f	0.02869281
110	0x3da0aa6c	0.078450054
111	0x3d8f5b78	0.06999868
112	0x3cfbf7e0	0.030757844
113	0x3d5c9ade	0.05385863
114	0x3d93a200	0.072086334
115	0x3d969fc3	0.07354691
116	0x3dd532b5	0.10410062
117	0xbd352511	-0.044224802
118	0xbd826811	-0.06367505
119	0xbd5a9bb6	-0.053371154
120	0x3d9ed29a	0.07755013
121	0xbd13ff51	-0.03613216
122	0xbe08183c	-0.13290495
123	0x3d3aabd7	0.045574035
124	0xbd2b706b	-0.041855257
125	0xbd4d79d1	-0.050165
126	0xbc941707	-0.018077387
127	0xbd50aec5	-0.050947923
128	0x3ccbc217	0.024872823
129	0xbde5275f	-0.1118915
130	0xbdadde17	-0.08489626
131	0xbaf389b7	-0.0018580471
132	0x3c44d355	0.012013276
133	0x3dd2af1f	0.10287308
134	0xbd544790	-0.05182606
135	0x3de4c208	0.11169821
136	0xbe04bc34	-0.12962419
137	0xbcf4282e	-0.029804315
138	0x3dcc59b6	0.099780485
139	0xbd8870f3	-0.06662168
140	0x3c20de39	0.009818607
141	0xbcccb4d7	-0.024988575
142	0x3d2f2105	0.0427561
143	0xbd0835e2	-0.03325451
144	0x3db5f9af	0.08885514
145	0x3daf2430	0.08551824
146	0x3c8da7a6	0.017291855
147	0xbc1010bd	-0.008793053
148	0x3d4f1563	0.050557505
149	0x3db1cca8	0.08681613
150	0x3b0c6980	0.0021425188
151	0xbab0fcc0	-0.001350306
152	0x3d8f65b7	0.070018224
153	0xbde6472c	-0.11244044
154	0x3af8ba10	0.0018976349
155	0xbdcf9f52	-0.1013781
156	0x3b45917e	0.0030146535
157	0x3da5d775	0.08097736
158	0xbd2d1db3	-0.04226465
159	0xbd8bd8e6	-0.068284795
160	0xbc1044d4	-0.008805472
161	0xbdd5362a	-0.104107216
162	0xbdb8cf7f	-0.09023952
163	0x3df5bbf1	0.119987376
164	0x3db7d1c4	0.089755565
165	0xbd6f0bf0	-0.058360994
166	0xbe14070e	-0.14455816
167	0xbd7ecb3e	-0.062205546
168	0xbdc9b1f2	-0.098483935
169	0x3d8f329c	0.06992075
170	0x3a208944	0.000612397
171	0x3d28f263	0.041246783
172	0x3dbbdfbf	0.091735356
173	0x3c9ece31	0.01938543
174	0x3cc8a908	0.024494663
175	0xbd0c1d45	-0.0342076
176	0x3cd09921	0.025463643
177	0xbcedc52e	-0.029024687
178	0xbcf37068	-0.029716685
179	0xbd8333ad	-0.06406341
180	0x3dff0997	0.12453001
181	0x3df3025c	0.118656844
182	0x3d1ebaea	0.038752474
183	0x3d68c993	0.05683286
184	0xbd0741b5	-0.033021647
185	0x3d1badd1	0.03800756
186	0x3de820bf	0.11334371
187	0x3d5e437c	0.054263577
188	0xbdf41877	-0.11918729
189	0xbde58bee	-0.1120833
190	0xbd2471da	-0.04014764
191	0xbde3383c	-0.1109471
192	0x3d8d095f	0.06886553
193	0x3d8a5193	0.0675384
194	0xbd5fe70c	-0.054663703
195	0xbe350bd8	-0.176803
196	0xbbebebcb	-0.0071997396
197	0x3da5b0fd	0.080903985
198	0x3b23d64a	0.0024999552
199	0x3d4285eb	0.047490995
200	0x3d93d6e4	0.072187215
201	0x3c00c122	0.007858546
202	0x3d421315	0.04738148
203	0x3e28cd72	0.16484621
204	0x3ce80367	0.028321935
205	0x3cd9e586	0.026598703
206	0xbe0b0704	-0.13576895
207	0xbccc5d18	-0.024946734
208	0x3e330fbd	0.17486472
209	0xbdee26ec	-0.116285175
210	0x3d00fec5	0.031492967
211	0xbe30a690	-0.17251039
212	0xbd5ea06c	-0.05435221
213	0xbe1f2c11	-0.15544154
214	0x3d39ee15	0.04539307
215	0x3d222c0c	0.039592788
216	0x3d9a334d	0.07529316
217	0xbce32360	-0.027726829
218	0x3cdf3c22	0.027250353
219	0x3d971cad	0.07378516
220	0x3d303174	0.043015912
221	0x3db10eaa	0.08645375
222	0x3cdef4f4	0.027216412
223	0x3d9c4dce	0.076320276
224	0x3d3319db	0.04372583
225	0xbd7e30c0	-0.06205821
226	0x3e3e86a8	0.18606055
227	0x3db68113	0.08911338
228	0xbd6f58cc	-0.058434293
229	0x3e3e4ac7	0.18583213
230	0xbc9aa4da	-0.018877435
231	0x3d6102aa	0.05493418
232	0x3dcfc39c	0.101447314
233	0xbdcdf7cb	-0.100570284
234	0xbdcb5ffb	-0.09930416
235	0x3e0b3ac4	0.13596636
236	0xbd0806fb	-0.033209782
237	0x3e4e0ec4	0.2012282
238	0xbe1dcf03	-0.15411
239	0xbd8dd792	-0.069258824
240	0xbd90bdf4	-0.07067481
241	0x3c817e77	0.015807373
242	0x3ca25080	0.019813776
243	0xbd311cf7	-0.043240514
244	0x3dac75e7	0.084209256
245	0x3da0d656	0.07853381
246	0xbc447564	-0.011990879
247	0x3cb4b95d	0.022061044
248	0xbd8d96b2	-0.069135085
249	0x3dc91ace	0.09819566
250	0x3d09239a	0.033481218
251	0xbd9426c1	-0.07233954
252	0xbb66795d	-0.0035167553
253	0x3db96c38	0.09053844
254	0xbe169394	-0.14704734
255	0xbe4837cb	-0.19552533

transformer_encoder.layers.0.linear1.bias f4 [128]
0	0x3d55a6b7	0.052160945
1	0x3d6937cc	0.056937978
2	0xbd9c6984	-0.07637313
3	0x3c578dfc	0.01315641
4	0x3dda7a99	0.10667915
5	0xbdfb4d56	-0.1227061
6	0x3dc6492b	0.096819244
7	0x3c7ec074	0.015548814
8	0x3a4ff71b	0.0007933245
9	0xbd4bc2c7	-0.0497463
10	0xbd7b16f7	-0.061301198
11	0x3d5389ee	0.051645212
12	0x3d345bc2	0.04403282
13	0x3d28f897	0.0412527
14	0xbc79d45d	-0.015248385
15	0x3c88e0bd	0.016708726
16	0xbdbc38ee	-0.09190546
17	0xbd1b206a	-0.03787271
18	0x3d14e72a	0.036353268
19	0x3d7e7905	0.062127132
20	0xbdcbfda8	-0.099604905
21	0xbdf32431	-0.11872137
22	0x3db54de8	0.0885275
23	0x3c8a7e14	0.016905822
24	0xbdd858b8	-0.10563797
25	0xbde3270e	-0.110914335
26	0xbe147f25	-0.14501627
27	0xbdd3e510	-0.103464246
28	0xbe096edb	-0.13421194
29	0xbdb1976c	-0.086714596
30	0xbd5a5303	-0.053301822
31	0xbd992fcc	-0.0747982
32	0x3d746bbc	0.059673056
33	0xbdd919b4	-0.106006056
34	0x3dd9e7da	0.10639925
35	0xbd6377dd	-0.055534232
36	0x3b60746f	0.0034249087
37	0x3caa86a8	0.020816162
38	0xbdc40319	-0.09570903
39	0x3dc07251	0.09396804
40	0xbdbcd47b	-0.09220215
41	0x3d949ae0	0.072561026
42	0xbdf7e6b1	-0.12104548
43	0xbdf7085e	-0.12062143
44	0xbdee61a0	-0.11639714
45	0x3d6d2c0a	0.057903327
46	0xbd73108f	-0.059341963
47	0x3dc974b0	0.098367095
48	0x3d0a0e57	0.03370508
49	0x3d21a7ff	0.039466854
50	0xbd86ff4e	-0.06591664
51	0xbdedbd26	-0.11608343
52	0x3d62305e	0.055221908
53	0x3d091b95	0.03347357
54	0xbdb86880	-0.09004307
55	0xbda2b2f2	-0.07944287
56	0xbd4db792	-0.050223894
57	0x3dcb18a7	0.099168114
58	0xbdd6e7fb	-0.104934655
59	0xbd6f57ad	-0.058433224
60	0x3d3ab7cc	0.04558544
61	0x3dc2e978	0.09517187
62	0x3e049754	0.12948352
63	0x3d9568ae	0.07295357
64	0x3d794e3c	0.060865626
65	0xbe13b181	-0.14423181
66	0x3d774785	0.06037094
67	0x3d199045	0.0374911
68	0xbd90ef68	-0.07076913
69	0x3d7ea517	0.06216916
70	0x3cf65a13	0.030072248
71	0x3d4e56d9	0.050375793
72	0xbcfee64f	-0.03111568
73	0x3dec5f18	0.11541575
74	0xbb709a50	-0.0036713071
75	0xbdccecc4	-0.10006097
76	0xbd66d996	-0.05635985
77	0xbc97a1bd	-0.01850974
78	0xbda6b319	-0.08139629
79	0xbd131be1	-0.03591526
80	0xbd02dcbb	-0.031948786
81	0x3b851a98	0.004062008
82	0x3dac1bc0	0.084037304
83	0xbcb6332c	-0.022241198
84	0xbd97d856	-0.0741431
85	0xbd09299a	-0.03348694
86	0x3c885b90	0.016645223
87	0xbdd0d1d6	-0.10196273
88	0x3d35340e	0.044239096
89	0xbd60e93e	-0.054909937
90	0x3d839417	0.0642473
91	0xbba49ee4	-0.005023824
92	0xbe0145b2	-0.12624243
93	0x3d4bc985	0.04975273
94	0xbde70758	-0.112806976
95	0xbd826618	-0.06367129
96	0x3d9860f7	0.074403696
97	0x3dc782d5	0.09741751
98	0xbd8e54c9	-0.06949765
99	0xbdaff5f3	-0.08591833
100	0xbd8d180f	-0.068893544
101	0x3cefe8ed	0.029285872
102	0xbd85d1eb	-0.06534179
103	0x3ddc0da6	0.10744791
104	0x3cbeeb9b	0.023305705
105	0x3bd8c17c	0.006614862
106	0xbbf02af7	-0.0073293406
107	0x3d907d80	0.07055187
108	0x3d07c012	0.033142157
109	0x3d3ae8bf	0.04563212
110	0xbdbaca9c	-0.09120676
111	0xbdd9685f	-0.1061561
112	0xbd2bae0c	-0.04191403
113	0x3d8fadb8	0.07015556
114	0x3d2224b9	0.039585803
115	0xbbc08316	-0.0058750017
116	0x3d36d12c	0.044633076
117	0xbc9909fd	-0.01868152
118	0x3af7f11c	0.0018916461
119	0x3ddc1310	0.107458234
120	0xbcf6dc41	-0.030134322
121	0xbda7d943	-0.08195736
122	0xbd16a49c	-0.036778077
123	0xbac79a15	-0.0015228415
124	0xbe0ae38f	-0.13563369
125	0xbd6d4a3c	-0.057932124
126	0xba7edaa0	-0.0009721909
127	0xbda1a327	-0.07892447

transformer_encoder.layers.0.linear2.weight f4 [64, 128]
0	0xbc81aa12	-0.015828166
1	0x3d8b0902	0.067888275
2	0xbcc3861b	-0.023867657
3	0x3dbe5ee7	0.09295445
4	0xbca304c0	-0.019899726
5	0xbd46ad63	-0.0485052
6	0x3d870c4f	0.065941446
7	0xbc075d5b	-0.008262004
8	0xbdc41e61	-0.09576107
9	0xbc58de6d	-0.013236624
10	0x3d8f6fdf	0.070037596
11	0xbd53ba83	-0.051691543
12	0x3d2ff1dc	0.042955264
13	0xbcdfb7fb	-0.027309408
14	0x3daf8ea4	0.085721284
15	0x3dadc67c	0.084851235
16	0xbacbf10a	-0.0015559506
17	0xbd9e4a1a	-0.077289775
18	0x3b0d0d62	0.002152287
19	0x3da906b9	0.08253235
20	0xbda2cb41	-0.07948924
21	0x3c9f5457	0.019449396
22	0xbb9a711c	-0.0047131907
23	0xbde11dec	-0.10992035
24	0x3d825658	0.06364125
25	0xbd0699ac	-0.032861397
26	0x3d9957cc	0.07487449
27	0x3c25f035	0.010128071
28	0xbda39d4f	-0.079889886
29	0xbd901a19	-0.07036228
30	0x3db8d8ce	0.09025727
31	0xbd1126b1	-0.03543729
32	0x3daddb18	0.084890544
33	0x3d83a5fb	0.06428143
34	0xbd503552	-0.0508321
35	0x3dde30f9	0.108491845
36	0x3daed7d2	0.08537258
37	0x3d060679	0.032721017
38	0xbcadd723	-0.02122075
39	0x3d150807	0.03638461
40	0xbce535a9	-0.027979689
41	0xbd928b8a	-0.07155521
42	0xbc3e6982	-0.011621835
43	0xbcca042d	-0.024660194
44	0xbd982be7	-0.07430249
45	0x3cb7aced	0.022421325
46	0xbe047fc9	-0.12939371
47	0xbda1308e	-0.07870589
48	0xbd0f3648	-0.034963876
49	0x3c3ee9f1	0.011652456
50	0x3d2ef133	0.042710494
51	0x3cf69759	0.030101465
52	0xbdb38b20	-0.0876677
53	0x3d6d2983	0.057900917
54	0x3d2929e4	0.041299716
55	0xbb28662e	-0.002569567
56	0x3c8f5738	0.017497644
57	0x3d191244	0.037370935
58	0x3da3e554	0.08002725
59	0xbd974e62	-0.07387997
60	0x3d786d2b	0.060650986
61	0xbb7e5d80	-0.0038813055
62	0xbdcaedcd	-0.09908638
63	0x3cb9f695	0.022700587
64	0xbd9b145d	-0.07572243
65	0x3d4fbd8d	0.05071788
66	0xbd732c12	-0.0593682
67	0xbc661b97	-0.014044664
68	0xbd4b7618	-0.04967317
69	0x3dc16e2b	0.09444841
70	0xbde7cea9	-0.11318714
71	0x3d3ee1f6	0.046602212
72	0x3dd708b7	0.10499709
73	0x3d308fb8	0.04310581
74	0x3d5f0b27	0.054453995
75	0x3d10dc4b	0.035366338
76	0xbd8d0ed1	-0.06887592
77	0x3c216afa	0.009852165
78	0x3d1920be	0.03738474
79	0xbd630ede	-0.0554341
80	0xbdab988b	-0.08378705
81	0xbd11bfe3	-0.035583388
82	0x3d755676	0.05989691
83	0x3c5862df	0.013207166
84	0xbde557a5	-0.111983575
85	0xbd4003cf	-0.046878632
86	0xbd2b21d5	-0.04178031
87	0xbda226ff	-0.07917594
88	0x3d0cb3fa	0.034351327
89	0x3d774186	0.060365222
90	0xbd545328	-0.051837116
91	0xbda45fd3	-0.080260895
92	0x3d4f5e26	0.050626896
93	0xbd599e54	-0.05312951
94	0x3d09aca9	0.033611927
95	0xbc04c77b	-0.0081042005
96	0x3cc2b05a	0.023765732
97	0x3c9bc529	0.019014912
98	0x3d3a0914	0.045418814
99	0x3cfea5f7	0.031084998
100	0x3cc5340d	0.024072671
101	0x3cc034e4	0.02346272
102	0x3c56e22e	0.013115449
103	0x3da5be64	0.08092955
104	0x3ded549f	0.11588406
105	0x3dc71f89	0.09722812
106	0x3d51157f	0.05104589
107	0xbcb2efb2	-0.021842811
108	0x3d8f1c3a	0.06987806
109	0x3b3d4976	0.0028882897
110	0x3d19f4d4	0.037587002
111	0x3c840a7f	0.016118286
112	0xbd69ca07	-0.057077434
113	0x3dcd42f9	0.1002254
114	0x3d1fa13b	0.03897212
115	0xbcc68ce8	-0.024237111
116	0xbc44673f	-0.011987506
117	0x3da46298	0.08026618
118	0xbc81d5d3	-0.01584903
119	0xbc18310b	-0.0092890365
120	0x3c9ee000	0.01939392
121	0x3d4cfef5	0.050047833
122	0xbc680e6a	-0.014163593
123	0x3d8d4ee7	0.06899815
124	0xbb2b866e	-0.0026172656
125	0x3dcfa473	0.10138788
126	0xbc2aa2a1	-0.01041475
127	0xbd98afca	-0.07455404
128	0xbd34f829	-0.044181976
129	0x3d439b8d	0.047755767
130	0xbc6eb0dd	-0.014568535
131	0xbcdd16f1	-0.026988478
132	0x3d93ab5b	0.07210418
133	0xbdbe9b63	-0.093069814
134	0xbdbfca01	-0.09364701
135	0x3d4979b1	0.04918832
136	0xbbd90b30	-0.006623648
137	0x3d09d712	0.033652373
138	0xbd8e7e5d	-0.06957696
139	0x3b820e18	0.0039689653
140	0x3bc3ccf5	0.0059753605
141	0xbd321874	-0.04348035
142	0xbbf557c3	-0.0074872687
143	0x3d56609f	0.05233824
144	0x3e0211e8	0.12702143
145	0xbd0c7078	-0.034286946
146	0x3da3675e	0.079787
147	0xbd165489	-0.036701713
148	0xbda6ab77	-0.08138173
149	0xbce4a189	-0.027909057
150	0xbdd37d2f	-0.10326611
151	0xbd60f6da	-0.054922916
152	0xbd9d1f80	-0.07672024
153	0x3d9c1713	0.076215886
154	0x3cefeda4	0.02928812
155	0xbd8f2419	-0.06989307
156	0x3d9c3adc	0.07628414
157	0x3d91210b	0.070863806
158	0xbca5537b	-0.020181408
159	0xbcd718c1	-0.02625692
160	0xbdcd4c18	-0.10024279
161	0xbe01b502	-0.12666705
162	0xbd6d0d16	-0.057873808
163	0xbc4e8797	-0.012605569
164	0x3d8c31db	0.06845447
165	0x3d6a99e6	0.057275675
166	0x3ce3a5c6	0.027789008
167	0xbd9c891a	-0.076433375
168	0x3bc2a4f2	0.005940073
169	0x3c2817f2	0.010259615
170	0xbdc466d2	-0.09589924
171	0xbd232889	-0.03983358
172	0x3d961ec5	0.073300876
173	0x3a8a3b6c	0.0010546274
174	0x3d6ebc1a	0.058284856
175	0xbd8fe3c8	-0.07025868
176	0xbda250a9	-0.07925541
177	0xbdd0879c	-0.101821154
178	0x3d9a93b0	0.075477004
179	0xbb859585	-0.004076662
180	0x3cf0601a	0.0293427
181	0xbc9952e9	-0.018716292
182	0x3dc6f6ad	0.097150184
183	0xbd8b3a8b	-0.067982756
184	0xbd0a04a7	-0.033695843
185	0xbceb4fa9	-0.028724508
186	0xbda7ecd3	-0.081994675
187	0x3d4ac6ef	0.049506124
188	0x3d2fd748	0.042929918
189	0xbd582a4f	-0.052774724
190	0x3da356bf	0.0797553
191	0x3d466d41	0.048444036
192	0xbe12637c	-0.14295763
193	0xbcc84c2a	-0.02445038
194	0xbdeb8c97	-0.11501425
195	0x3da39c17	0.07988756
196	0x3dacfd34	0.08446732
197	0xbd9b8a1d	-0.075947024
198	0xbc355c16	-0.011069318
199	0x3d9d4109	0.0767842
200	0xbdd3fd41	-0.10351039
201	0x3d63890d	0.055550624
202	0x3c3b62ec	0.011437159
203	0xbd8f4781	-0.0699606
204	0x3d1e0cb8	0.03858635
205	0xbd2788af	-0.040901836
206	0xbc64012c	-0.013916295
207	0xbd6096ca	-0.054831304
208	0xbdcc6413	-0.09980025
209	0x3c3fd9ac	0.011709612
210	0xbdd2744c	-0.10276088
211	0xbca244c3	-0.019808179
212	0x3dca46f3	0.09876814
213	0xbc1fdad0	-0.009756759
214	0xbd838914	-0.0642263
215	0xbd09d101	-0.033646587
216	0x3d887dfd	0.06664655
217	0x3da93528	0.08262092
218	0x3da11739	0.078657575
219	0xbc839e62	-0.016066734
220	0xbca5f02d	-0.020256126
221	0x3d10673d	0.035254706
222	0xbd838593	-0.06421962
223	0x3ced5089	0.028969066
224	0xbdaacdf4	-0.08340064
225	0xbc738794	-0.014863867
226	0x3ab018d6	0.0013435136
227	0x3d802f30	0.06259
228	0xbd5e82b5	-0.05432387
229	0xbc88793d	-0.016659373
230	0x3a811235	0.0009847345
231	0xbdf50460	-0.11963725
232	0x3cb3ab97	0.021932406
233	0xbe07c94f	-0.13260387
234	0x3d9972f3	0.07492628
235	0x3d8180e7	0.06323414
236	0x3d11d120	0.035599828
237	0xbd9075ba	-0.070537046
238	0x3cf0516f	0.029335706
239	0x3c6ff7b0	0.014646456
240	0xbde9c2d1	-0.114141114
241	0x3baa6cf3	0.005200976
242	0xbc895292	-0.016763005
243	0x3db84e22	0.08999278
244	0xbcb4640f	-0.022020368
245	0x3db0d418	0.08634204
246	0xbda4ef76	-0.08053486
247	0xbd6171b9	-0.055040095
248	0xbc487e72	-0.012237178
249	0xbc93e456	-0.018053215
250	0x3d383cd9	0.044979904
251	0x3cfb8f09	0.030707853
252	0xbcbd4bea	-0.023107488
253	0x3d15308b	0.036423247
254	0xbb92c55e	-0.0044790944
255	0xbb906f2c	-0.004407784

transformer_encoder.layers.0.linear2.bias f4 [64]
0	0xbd8d318f	-0.06894218
1	0xbd1626f1	-0.03665823
2	0xbd705519	-0.058674905
3	0x3d2325a3	0.039830815
4	0x3c9f91dc	0.01947873
5	0xbcb983cc	-0.022645853
6	0x3dac0a77	0.084004335
7	0xbd004ffc	-0.03132628
8	0xbb8d8f12	-0.004320034
9	0x3d39d243	0.045366537
10	0x3d7629f1	0.060098592
11	0xbd0129fc	-0.03153418
12	0x3b8b51af	0.004251681
13	0xbbf3a701	-0.00743568
14	0xbd45e39c	-0.04831277
15	0xbb2930a3	-0.0025816343
16	0xbc76528b	-0.015034328
17	0x3c6f87be	0.014619766
18	0x3d884977	0.06654637
19	0x3d62b074	0.05534406
20	0xbb6c7c00	-0.0036084652
21	0x3c8c5ada	0.017133165
22	0xbd8ef18f	-0.069796674
23	0x3cb63360	0.022241294
24	0xbc32a419	-0.010903382
25	0xbd19e4cc	-0.037571713
26	0x3d4a11d2	0.0493334
27	0x3d1670c3	0.03672863
28	0x3c196866	0.009363269
29	0x3c9ed1ea	0.019387204
30	0xbc908eec	-0.017646275
31	0x3d6ca960	0.057778716
32	0x3cde0764	0.027103133
33	0xbd21807c	-0.039429173
34	0x3c30982f	0.010778471
35	0x3b7338ca	0.0037112706
36	0x3d37ca95	0.04487093
37	0x3d0166c1	0.031592134
38	0xbd8d007d	-0.06884859
39	0x3d9fe5cb	0.078075014
40	0xbd184395	-0.037173826
41	0x3d358333	0.044314574
42	0xbd448714	-0.047980383
43	0xbd1baa6d	-0.038004328
44	0xbcf281ff	-0.029603003
45	0xbbe821ec	-0.007084122
46	0xbd2f6e46	-0.042829774
47	0xbc05c3a5	-0.008164321
48	0xbdb63d31	-0.0889839
49	0xbd233ca7	-0.039852764
50	0xbda7fe85	-0.082028426
51	0x3d924634	0.071422964
52	0xbd7af218	-0.061266035
53	0x3cce67f5	0.025196055
54	0xbd6cfaff	-0.057856556
55	0x3db14d16	0.08657281
56	0xbd82f27c	-0.063939065
57	0x3b138254	0.0022508102
58	0xbd2eade2	-0.042646296
59	0xbda2f573	-0.07956972
60	0x3ba69032	0.0050831074
61	0xbd75cade	-0.060007922
62	0xbb89166e	-0.004183582
63	0x3cdd07df	0.026981292

transformer_encoder.layers.0.norm1.weight f4 [64]
0	0x3f817d68	1.0116396
1	0x3f80b7db	1.0056108
2	0x3f85ba1f	1.0447425
3	0x3f802129	1.001012
4	0x3f7d616d	0.98976785
5	0x3f7e5460	0.99347496
6	0x3f82a2da	1.0205948
7	0x3f7e2e4c	0.99289393
8	0x3f8255cc	1.0182433
9	0x3f76f64f	0.9646959
10	0x3f7f5a5f	0.9974727
11	0x3f80d8f7	1.0066212
12	0x3f7d92c8	0.99052095
13	0x3f80bd41	1.0057756
14	0x3f827d89	1.019456
15	0x3f812f2e	1.0092523
16	0x3f7b1552	0.9807941
17	0x3f7aa660	0.9791012
18	0x3f830e96	1.0238826
19	0x3f847151	1.0347081
20	0x3f8448e3	1.0334743
21	0x3f774b33	0.9659912
22	0x3f7ce004	0.9877932
23	0x3f7a9404	0.97882104
24	0x3f76304a	0.96167433
25	0x3f7869f6	0.97036684
26	0x3f7c0194	0.9843991
27	0x3f7e18bb	0.99256486
28	0x3f815ca7	1.01064
29	0x3f7da762	0.9908353
30	0x3f708b2c	0.9396236
31	0x3f818ce7	1.0121125
32	0x3f7cc011	0.9873057
33	0x3f7e84c3	0.9942133
34	0x3f816b40	1.0110855
35	0x3f7f4aa1	0.9972325
36	0x3f79a2f4	0.9751427
37	0x3f80ff11	1.007784
38	0x3f80077e	1.0002286
39	0x3f7e91ac	0.9944103
40	0x3f80268f	1.0011767
41	0x3f80379c	1.0016971
42	0x3f842f81	1.0326997
43	0x3f7e98b1	0.9945174
44	0x3f8157fc	1.0104976
45	0x3f8353a0	1.0259895
46	0x3f7e5e72	0.9936286
47	0x3f8145f1	1.009947
48	0x3f81bc06	1.0135505
49	0x3f7fa9c2	0.99868405
50	0x3f7e2103	0.9926912
51	0x3f859cb7	1.043845
52	0x3f85d0d9	1.045436
53	0x3f820407	1.0157479
54	0x3f7bf8ac	0.9842632
55	0x3f822e94	1.0170465
56	0x3f81a66e	1.0128915
57	0x3f7f778b	0.99791783
58	0x3f80283e	1.0012281
59	0x3f8049de	1.0022542
60	0x3f7f9e5c	0.9985101
61	0x3f7894b7	0.9710192
62	0x3f825a14	1.018374
63	0x3f7cf238	0.98807096

transformer_encoder.layers.0.norm1.bias f4 [64]
0	0xbbac9069	-0.0052662385
1	0xbbf5a354	-0.007496277
2	0x3c5b7318	0.01339414
3	0xbba1b1a9	-0.004934509
4	0x3baf10ba	0.00534257
5	0x3c13886e	0.009004695
6	0x3c249ef0	0.010047659
7	0x3caa3aa5	0.020779917
8	0xbc7af59c	-0.015317347
9	0xbc7fbd1d	-0.015609053
10	0x3c5d6f96	0.013515374
11	0x3c087d4f	0.008330657
12	0xbc4a6d7e	-0.0123552065
13	0x3cced944	0.025250085
14	0xb8b52f79	-8.639595e-05
15	0xbb87ac1f	-0.0041403915
16	0x3af9a8f4	0.0019047544
17	0xba997f7a	-0.0011710965
18	0xbca11f29	-0.019668179
19	0xbcb22a01	-0.021748545
20	0xbbac3a40	-0.0052559674
21	0x3b8894d9	0.0041681346
22	0xbc6fb8ad	-0.0146314325
23	0x3c7a74f0	0.015286669
24	0xbb5236c6	-0.0032076105
25	0x3b75bb5c	0.0037495708
26	0xbc9815ee	-0.018565144
27	0xbcc50b0b	-0.024053117
28	0xbbad2ce8	-0.0052848943
29	0xbc44447c	-0.011979219
30	0x3c647e67	0.013946152
31	0x3acd05cd	0.0015641988
32	0x3c53c208	0.012924679
33	0x3b9ea62d	0.004841587
34	0xbb60b4a9	-0.003428737
35	0x3bbdb543	0.0057894303
36	0xbc0650d5	-0.008197983
37	0x3c9f70da	0.019462992
38	0x3a035e30	0.00050112884
39	0x3c84e837	0.01622401
40	0x3c56bbe2	0.013106318
41	0x3cb7a586	0.022417795
42	0x3c9ab481	0.0188849
43	0xbbcb9133	-0.0062123775
44	0xbc0944d5	-0.008378227
45	0x3c0f983b	0.008764322
46	0x3ba4648d	0.0050168694
47	0xbc396c93	-0.01131739
48	0xbc1af23e	-0.009457169
49	0xbc1a3a4d	-0.009413314
50	0x3c82508d	0.01590755
51	0x39e31cca	0.00043318263
52	0x3c291db5	0.010322024
53	0x3be8630d	0.007091886
54	0xbc4108f5	-0.011781921
55	0x3b831b3e	0.0040010503
56	0xbb55bfa3	-0.0032615445
57	0xbb0b71de	-0.0021277587
58	0xbcb7c3dc	-0.02243226
59	0xbcbc3650	-0.022975117
60	0xbbc02348	-0.005863581
61	0xbc0875ac	-0.008328836
62	0xbc5c74cb	-0.01345558
63	0xbbe327c6	-0.0069322316
